…
80/"},"id":"xH7JzbMv5xBt","executionInfo":{"status":"ok","timestamp":1629200973188,"user_tz":-540,"elapsed":3131,"user":{"displayName":"NW Lee","photoUrl":"https://lh3.googleusercontent.com/a-/AOh14GjuuHPa8vEMMeQuqyaxiWPFyET3-LagQIylLPRFtA=s64","userId":"09379932391728727752"}},"outputId":"f32ac165-4b0e-4fc9-d15c-f4584dcdcf5e"}},{"cell_type":"code","execution_count":55,"source":["### ì„ì˜ë¡œ ì‘ì„±í•œ ì½”ë“œì„\n","model"],"outputs":[{"output_type":"execute_result","data":{"text/plain":["BertForPreTraining(\n","  (bert): BertModel(\n","    (embeddings): BertEmbeddings(\n","      (word_embeddings): Embedding(20000, 512, padding_idx=0)\n","      (position_embeddings): Embedding(128, 512)\n","      (token_type_embeddings): Embedding(2, 512)\n","      (LayerNorm): LayerNorm((512,), eps=1e-12, elementwise_affine=True)\n","      (dropout): Dropout(p=0.1, inplace=False)\n","    )\n","    (encoder): BertEncoder(\n","      (layer): ModuleList(\n","        (0): BertLayer(\n","          (attention): BertAttention(\n","            (self): BertSelfAttention(\n","              (query): Linear(in_features=512, out_features=512, bias=True)\n","              (key): Linear(in_features=512, out_features=512, bias=True)\n","              (value): Linear(in_features=512, out_features=512, bias=True)\n","              (dropout): Dropout(p=0.1, inplace=False)\n","            )\n","            (output): BertSelfOutput(\n","              (dense): Linear(in_features=512, out_features=512, bias=True)\n","              (LayerNorm): LayerNorm((512,), eps=1e-12, elementwise_affine=True)\n","              (dropout): Dropout(p=0.1, inplace=False)\n","            )\n","          )\n","          (intermediate): BertIntermediate(\n","            (dense): Linear(in_features=512, out_features=3072, bias=True)\n","          )\n","          (output): BertOutput(\n","            (dense): Linear(in_features=3072, out_features=512, bias=True)\n","            (LayerNorm): LayerNorm((512,), eps=1e-12, elementwise_affine=True)\n","            (dropout): Dropout(p=0.1, inplace=False)\n","          )\n","        )\n","        (1): BertLayer(\n","          (attention): BertAttention(\n","            (self): BertSelfAttention(\n","              (query): Linear(in_features=512, out_features=512, bias=True)\n","              (key): Linear(in_features=512, out_features=512, bias=True)\n","              (value): Linear(in_features=512, out_features=512, bias=True)\n","              (dropout): Dropout(p=0.1, inplace=False)\n","            )\n","            (output): BertSelfOutput(\n","              (dense): Linear(in_features=512, out_features=512, bias=True)\n","              (LayerNorm): LayerNorm((512,), eps=1e-12, elementwise_affine=True)\n","              (dropout): Dropout(p=0.1, inplace=False)\n","            )\n","          )\n","          (intermediate): BertIntermediate(\n","            (dense): Linear(in_features=512, out_features=3072, bias=True)\n","          )\n","          (output): BertOutput(\n","            (dense): Linear(in_features=3072, out_features=512, bias=True)\n","            (LayerNorm): LayerNorm((512,), eps=1e-12, elementwise_affine=True)\n","            (dropout): Dropout(p=0.1, inplace=False)\n","          )\n","        )\n","        (2): BertLayer(\n","          (attention): BertAttention(\n","            (self): BertSelfAttention(\n","              (query): Linear(in_features=512, out_features=512, bias=True)\n","              (key): Linear(in_features=512, out_features=512, bias=True)\n","              (value): Linear(in_features=512, out_features=512, bias=True)\n","              (dropout): Dropout(p=0.1, inplace=False)\n","            )\n","            (output): BertSelfOutput(\n","              (dense): Linear(in_features=512, out_features=512, bias=True)\n","              (LayerNorm): LayerNorm((512,), eps=1e-12, elementwise_affine=True)\n","              (dropout): Dropout(p=0.1, inplace=False)\n","            )\n","          )\n","          (intermediate): BertIntermediate(\n","            (dense): Linear(in_features=512, out_features=3072, bias=True)\n","          )\n","          (output): BertOutput(\n","            (dense): Linear(in_features=3072, out_features=512, bias=True)\n","            (LayerNorm): LayerNorm((512,), eps=1e-12, elementwise_affine=True)\n","            (dropout): Dropout(p=0.1, inplace=False)\n","          )\n","        )\n","        (3): BertLayer(\n","          (attention): BertAttention(\n","            (self): BertSelfAttention(\n","              (query): Linear(in_features=512, out_features=512, bias=True)\n","              (key): Linear(in_features=512, out_features=512, bias=True)\n","              (value): Linear(in_features=512, out_features=512, bias=True)\n","              (dropout): Dropout(p=0.1, inplace=False)\n","            )\n","            (output): BertSelfOutput(\n","              (dense): Linear(in_features=512, out_features=512, bias=True)\n","              (LayerNorm): LayerNorm((512,), eps=1e-12, elementwise_affine=True)\n","              (dropout): Dropout(p=0.1, inplace=False)\n","            )\n","          )\n","          (intermediate): BertIntermediate(\n","            (dense): Linear(in_features=512, out_features=3072, bias=True)\n","          )\n","          (output): BertOutput(\n","            (dense): Linear(in_features=3072, out_features=512, bias=True)\n","            (LayerNorm): LayerNorm((512,), eps=1e-12, elementwise_affine=True)\n","            (dropout): Dropout(p=0.1, inplace=False)\n","          )\n","        )\n","        (4): BertLayer(\n","          (attention): BertAttention(\n","            (self): BertSelfAttention(\n","              (query): Linear(in_features=512, out_features=512, bias=True)\n","              (key): Linear(in_features=512, out_features=512, bias=True)\n","              (value): Linear(in_features=512, out_features=512, bias=True)\n","              (dropout): Dropout(p=0.1, inplace=False)\n","            )\n","            (output): BertSelfOutput(\n","              (dense): Linear(in_features=512, out_features=512, bias=True)\n","              (LayerNorm): LayerNorm((512,), eps=1e-12, elementwise_affine=True)\n","              (dropout): Dropout(p=0.1, inplace=False)\n","            )\n","          )\n","          (intermediate): BertIntermediate(\n","            (dense): Linear(in_features=512, out_features=3072, bias=True)\n","          )\n","          (output): BertOutput(\n","            (dense): Linear(in_features=3072, out_features=512, bias=True)\n","            (LayerNorm): LayerNorm((512,), eps=1e-12, elementwise_affine=True)\n","            (dropout): Dropout(p=0.1, inplace=False)\n","          )\n","        )\n","        (5): BertLayer(\n","          (attention): BertAttention(\n","            (self): BertSelfAttention(\n","              (query): Linear(in_features=512, out_features=512, bias=True)\n","              (key): Linear(in_features=512, out_features=512, bias=True)\n","              (value): Linear(in_features=512, out_features=512, bias=True)\n","              (dropout): Dropout(p=0.1, inplace=False)\n","            )\n","            (output): BertSelfOutput(\n","              (dense): Linear(in_features=512, out_features=512, bias=True)\n","              (LayerNorm): LayerNorm((512,), eps=1e-12, elementwise_affine=True)\n","              (dropout): Dropout(p=0.1, inplace=False)\n","            )\n","          )\n","          (intermediate): BertIntermediate(\n","            (dense): Linear(in_features=512, out_features=3072, bias=True)\n","          )\n","          (output): BertOutput(\n","            (dense): Linear(in_features=3072, out_features=512, bias=True)\n","            (LayerNorm): LayerNorm((512,), eps=1e-12, elementwise_affine=True)\n","            (dropout): Dropout(p=0.1, inplace=False)\n","          )\n","        )\n","        (6): BertLayer(\n","          (attention): BertAttention(\n","            (self): BertSelfAttention(\n","              (query): Linear(in_features=512, out_features=512, bias=True)\n","              (key): Linear(in_features=512, out_features=512, bias=True)\n","              (value): Linear(in_features=512, out_features=512, bias=True)\n","              (dropout): Dropout(p=0.1, inplace=False)\n","            )\n","            (output): BertSelfOutput(\n","              (dense): Linear(in_features=512, out_features=512, bias=True)\n","              (LayerNorm): LayerNorm((512,), eps=1e-12, elementwise_affine=True)\n","              (dropout): Dropout(p=0.1, inplace=False)\n","            )\n","          )\n","          (intermediate): BertIntermediate(\n","            (dense): Linear(in_features=512, out_features=3072, bias=True)\n","          )\n","          (output): BertOutput(\n","            (dense): Linear(in_features=3072, out_features=512, bias=True)\n","            (LayerNorm): LayerNorm((512,), eps=1e-12, elementwise_affine=True)\n","            (dropout): Dropout(p=0.1, inplace=False)\n","          )\n","        )\n","        (7): BertLayer(\n","          (attention): BertAttention(\n","            (self): BertSelfAttention(\n","              (query): Linear(in_features=512, out_features=512, bias=True)\n","              (key): Linear(in_features=512, out_features=512, bias=True)\n","              (value): Linear(in_features=512, out_features=512, bias=True)\n","              (dropout): Dropout(p=0.1, inplace=False)\n","            )\n","            (output): BertSelfOutput(\n","              (dense): Linear(in_features=512, out_features=512, bias=True)\n","              (LayerNorm): LayerNorm((512,), eps=1e-12, elementwise_affine=True)\n","              (dropout): Dropout(p=0.1, inplace=False)\n","            )\n","          )\n","          (intermediate): BertIntermediate(\n","            (dense): Linear(in_features=512, out_features=3072, bias=True)\n","          )\n","          (output): BertOutput(\n","            (dense): Linear(in_features=3072, out_features=512, bias=True)\n","            (LayerNorm): LayerNorm((512,), eps=1e-12, elementwise_affine=True)\n","            (dropout): Dropout(p=0.1, inplace=False)\n","          )\n","        )\n","        (8): BertLayer(\n","          (attention): BertAttention(\n","            (self): BertSelfAttention(\n","              (query): Linear(in_features=512, out_features=512, bias=True)\n","              (key): Linear(in_features=512, out_features=512, bias=True)\n","              (value): Linear(in_features=512, out_features=512, bias=True)\n","              (dropout): Dropout(p=0.1, inplace=False)\n","            )\n","            (output): BertSelfOutput(\n","              (dense): Linear(in_features=512, out_features=512, bias=True)\n","              (LayerNorm): LayerNorm((512,), eps=1e-12, elementwise_affine=True)\n","              (dropout): Dropout(p=0.1, inplace=False)\n","            )\n","          )\n","          (intermediate): BertIntermediate(\n","            (dense): Linear(in_features=512, out_features=3072, bias=True)\n","          )\n","          (output): BertOutput(\n","            (dense): Linear(in_features=3072, out_features=512, bias=True)\n","            (LayerNorm): LayerNorm((512,), eps=1e-12, elementwise_affine=True)\n","            (dropout): Dropout(p=0.1, inplace=False)\n","          )\n","        )\n","        (9): BertLayer(\n","          (attention): BertAttention(\n","            (self): BertSelfAttention(\n","              (query): Linear(in_features=512, out_features=512, bias=True)\n","              (key): Linear(in_features=512, out_features=512, bias=True)\n","              (value): Linear(in_features=512, out_features=512, bias=True)\n","              (dropout): Dropout(p=0.1, inplace=False)\n","            )\n","            (output): BertSelfOutput(\n","              (dense): Linear(in_features=512, out_features=512, bias=True)\n","              (LayerNorm): LayerNorm((512,), eps=1e-12, elementwise_affine=True)\n","              (dropout): Dropout(p=0.1, inplace=False)\n","            )\n","          )\n","          (intermediate): BertIntermediate(\n","            (dense): Linear(in_features=512, out_features=3072, bias=True)\n","          )\n","          (output): BertOutput(\n","            (dense): Linear(in_features=3072, out_features=512, bias=True)\n","            (LayerNorm): LayerNorm((512,), eps=1e-12, elementwise_affine=True)\n","            (dropout): Dropout(p=0.1, inplace=False)\n","          )\n","        )\n","        (10): BertLayer(\n","          (attention): BertAttention(\n","            (self): BertSelfAttention(\n","              (query): Linear(in_features=512, out_features=512, bias=True)\n","              (key): Linear(in_features=512, out_features=512, bias=True)\n","              (value): Linear(in_features=512, out_features=512, bias=True)\n","              (dropout): Dropout(p=0.1, inplace=False)\n","            )\n","            (output): BertSelfOutput(\n","              (dense): Linear(in_features=512, out_features=512, bias=True)\n","              (LayerNorm): LayerNorm((512,), eps=1e-12, elementwise_affine=True)\n","              (dropout): Dropout(p=0.1, inplace=False)\n","            )\n","          )\n","          (intermediate): BertIntermediate(\n","            (dense): Linear(in_features=512, out_features=3072, bias=True)\n","          )\n","          (output): BertOutput(\n","            (dense): Linear(in_features=3072, out_features=512, bias=True)\n","            (LayerNorm): LayerNorm((512,), eps=1e-12, elementwise_affine=True)\n","            (dropout): Dropout(p=0.1, inplace=False)\n","          )\n","        )\n","        (11): BertLayer(\n","          (attention): BertAttention(\n","            (self): BertSelfAttention(\n","              (query): Linear(in_features=512, out_features=512, bias=True)\n","              (key): Linear(in_features=512, out_features=512, bias=True)\n","              (value): Linear(in_features=512, out_features=512, bias=True)\n","              (dropout): Dropout(p=0.1, inplace=False)\n","            )\n","            (output): BertSelfOutput(\n","              (dense): Linear(in_features=512, out_features=512, bias=True)\n","              (LayerNorm): LayerNorm((512,), eps=1e-12, elementwise_affine=True)\n","              (dropout): Dropout(p=0.1, inplace=False)\n","            )\n","          )\n","          (intermediate): BertIntermediate(\n","            (dense): Linear(in_features=512, out_features=3072, bias=True)\n","          )\n","          (output): BertOutput(\n","            (dense): Linear(in_features=3072, out_features=512, bias=True)\n","            (LayerNorm): LayerNorm((512,), eps=1e-12, elementwise_affine=True)\n","            (dropout): Dropout(p=0.1, inplace=False)\n","          )\n","        )\n","      )\n","    )\n","    (pooler): BertPooler(\n","      (dense): Linear(in_features=512, out_features=512, bias=True)\n","      (activation): Tanh()\n","    )\n","  )\n","  (cls): BertPreTrainingHeads(\n","    (predictions): BertLMPredictionHead(\n","      (transform): BertPredictionHeadTransform(\n","        (dense): Linear(in_features=512, out_features=512, bias=True)\n","        (LayerNorm): LayerNorm((512,), eps=1e-12, elementwise_affine=True)\n","      )\n","      (decoder): Linear(in_features=512, out_features=20000, bias=True)\n","    )\n","    (seq_relationship): Linear(in_features=512, out_features=2, bias=True)\n","  )\n",")"]},"metadata":{},"execution_count":55}],"metadata":{}},{"cell_type":"code","execution_count":18,"source":["from transformers import DataCollatorForLanguageModeling"],"outputs":[],"metadata":{"id":"Sn7SnD0VjUqi"}},{"cell_type":"code","execution_count":19,"source":["import torch\n","from torch.utils.data.dataset import Dataset\n","from transf
…
